…
        (11): Dropout(p=0.0, inplace=False)
        (12): GraphSizeNorm()
        (13): BatchNorm(32)
        (14): ReLU()
      )
      (3): ModuleList(
        (0): SAGEConv(38, 32)
        (1): Dropout(p=0.0, inplace=False)
        (2): GraphSizeNorm()
        (3): BatchNorm(32)
        (4): ReLU()
        (5): SAGEConv(32, 32)
        (6): Dropout(p=0.0, inplace=False)
        (7): GraphSizeNorm()
        (8): BatchNorm(32)
        (9): ReLU()
        (10): SAGEConv(32, 32)
        (11): Dropout(p=0.0, inplace=False)
        (12): GraphSizeNorm()
        (13): BatchNorm(32)
        (14): ReLU()
      )
    )
    (layer_norm): LayerNorm((32,), eps=1e-06, elementwise_affine=True)
    (DT): DataTransform()
  )
  (smus): ModuleList(
    (0): Attv2(
      (trans_lin): ModuleList(
        (0): Linear(in_features=64, out_features=32, bias=True)
        (1): Linear(in_features=32, out_features=32, bias=True)
      )
      (att_lin): Linear(in_features=64, out_features=1, bias=True)
      (dropout): Dropout(p=0.0, inplace=False)
      (layer_norm): LayerNorm((32,), eps=1e-06, elementwise_affine=True)
    )
    (1): Attv2(
      (trans_lin): ModuleList(
        (0): Linear(in_features=64, out_features=32, bias=True)
        (1): Linear(in_features=32, out_features=32, bias=True)
      )
      (att_lin): Linear(in_features=64, out_features=1, bias=True)
      (dropout): Dropout(p=0.0, inplace=False)
      (layer_norm): LayerNorm((32,), eps=1e-06, elementwise_affine=True)
    )
    (2): Attv2(
      (trans_lin): ModuleList(
        (0): Linear(in_features=64, out_features=32, bias=True)
        (1): Linear(in_features=32, out_features=32, bias=True)
      )
      (att_lin): Linear(in_features=64, out_features=1, bias=True)
      (dropout): Dropout(p=0.0, inplace=False)
      (layer_norm): LayerNorm((32,), eps=1e-06, elementwise_affine=True)
    )
    (3): Attv2(
      (trans_lin): ModuleList(
        (0): Linear(in_features=64, out_features=32, bias=True)
        (1): Linear(in_features=32, out_features=32, bias=True)
      )
      (att_lin): Linear(in_features=64, out_features=1, bias=True)
      (dropout): Dropout(p=0.0, inplace=False)
      (layer_norm): LayerNorm((32,), eps=1e-06, elementwise_affine=True)
    )
  )
  (vlr): VLRLayers(
    (k_fc): Linear(in_features=32, out_features=32, bias=True)
    (v_fc): Linear(in_features=32, out_features=32, bias=True)
    (dropout): Dropout(p=0.0, inplace=False)
    (layer_norm): LayerNorm((32,), eps=1e-06, elementwise_affine=True)
  )
  (cnn_net): LeNet(
    (conv1): Conv2d(4, 16, kernel_size=(5, 5), stride=(1, 1))
    (conv2): Conv2d(16, 18, kernel_size=(5, 5), stride=(1, 1))
    (dropout): Dropout(p=0.0, inplace=False)
  )
  (dropout): Dropout(p=0.5, inplace=False)
  (fc1): Linear(in_features=450, out_features=32, bias=True)
  (fc2): Linear(in_features=32, out_features=2, bias=True)
)

fold [0/10] is start!!
[01/0001] | train_loss:0.6795 val_acc:49.2718 val_loss:0.6877
model is saved at epoch 1!![01/0002] | train_loss:0.6473 val_acc:49.2718 val_loss:0.6882
[01/0003] | train_loss:0.6247 val_acc:50.0 val_loss:0.6917
model is saved at epoch 3!![01/0004] | train_loss:0.611 val_acc:50.2427 val_loss:0.6797
model is saved at epoch 4!![01/0005] | train_loss:0.5888 val_acc:58.2524 val_loss:0.6376
…
