…
        (11): Dropout(p=0.0, inplace=False)
        (12): GraphSizeNorm()
        (13): BatchNorm(32)
        (14): ReLU()
      )
      (3): ModuleList(
        (0): SAGEConv(1, 32)
        (1): Dropout(p=0.0, inplace=False)
        (2): GraphSizeNorm()
        (3): BatchNorm(32)
        (4): ReLU()
        (5): SAGEConv(32, 32)
        (6): Dropout(p=0.0, inplace=False)
        (7): GraphSizeNorm()
        (8): BatchNorm(32)
        (9): ReLU()
        (10): SAGEConv(32, 32)
        (11): Dropout(p=0.0, inplace=False)
        (12): GraphSizeNorm()
        (13): BatchNorm(32)
        (14): ReLU()
      )
    )
    (layer_norm): LayerNorm((32,), eps=1e-06, elementwise_affine=True)
  )
  (smus): ModuleList(
    (0): Attv2(
      (trans_lin): ModuleList(
        (0): Linear(in_features=64, out_features=32, bias=True)
        (1): Linear(in_features=32, out_features=32, bias=True)
      )
      (att_lin): Linear(in_features=64, out_features=1, bias=True)
      (dropout): Dropout(p=0.0, inplace=False)
      (layer_norm): LayerNorm((32,), eps=1e-06, elementwise_affine=True)
    )
    (1): Attv2(
      (trans_lin): ModuleList(
        (0): Linear(in_features=64, out_features=32, bias=True)
        (1): Linear(in_features=32, out_features=32, bias=True)
      )
      (att_lin): Linear(in_features=64, out_features=1, bias=True)
      (dropout): Dropout(p=0.0, inplace=False)
      (layer_norm): LayerNorm((32,), eps=1e-06, elementwise_affine=True)
    )
    (2): Attv2(
      (trans_lin): ModuleList(
        (0): Linear(in_features=64, out_features=32, bias=True)
        (1): Linear(in_features=32, out_features=32, bias=True)
      )
      (att_lin): Linear(in_features=64, out_features=1, bias=True)
      (dropout): Dropout(p=0.0, inplace=False)
      (layer_norm): LayerNorm((32,), eps=1e-06, elementwise_affine=True)
    )
    (3): Attv2(
      (trans_lin): ModuleList(
        (0): Linear(in_features=64, out_features=32, bias=True)
        (1): Linear(in_features=32, out_features=32, bias=True)
      )
      (att_lin): Linear(in_features=64, out_features=1, bias=True)
      (dropout): Dropout(p=0.0, inplace=False)
      (layer_norm): LayerNorm((32,), eps=1e-06, elementwise_affine=True)
    )
  )
  (vlr): VLRLayers(
    (k_fc): Linear(in_features=32, out_features=32, bias=True)
    (v_fc): Linear(in_features=32, out_features=32, bias=True)
    (dropout): Dropout(p=0.0, inplace=False)
    (layer_norm): LayerNorm((32,), eps=1e-06, elementwise_affine=True)
  )
  (cnn_net): LeNet(
    (conv1): Conv2d(4, 16, kernel_size=(5, 5), stride=(1, 1))
    (conv2): Conv2d(16, 18, kernel_size=(5, 5), stride=(1, 1))
    (dropout): Dropout(p=0.0, inplace=False)
  )
  (dropout): Dropout(p=0.30000000000000004, inplace=False)
  (fc1): Linear(in_features=450, out_features=32, bias=True)
  (fc2): Linear(in_features=32, out_features=11, bias=True)
)

fold [0/10] is start!!
[01/0001] | train_loss:2.2339 val_acc:22.0638 val_loss:2.2271
model is saved at epoch 1!![01/0002] | train_loss:2.0714 val_acc:27.6007 val_loss:1.9774
model is saved at epoch 2!![01/0003] | train_loss:1.9927 val_acc:30.7047 val_loss:1.8853
model is saved at epoch 3!![01/0004] | train_loss:1.9559 val_acc:30.5369 val_loss:1.8812
[01/0005] | train_loss:1.9274 val_acc:30.453 val_loss:1.8417
…
